hydra/models/lcd/place_gnn.onnx (onnx, 408075 bytes, 18 tensors)

MLP_node.0.weight f4 [3, 2]
0	0x3f31b4cb	0.69416493
1	0x3ebbfca0	0.36716175
2	0x3f534f3c	0.8254278
3	0xbdd36bd8	-0.10323304
4	0xb3f97528	-1.1616277e-07
5	0xbaa891ed	-0.0012860872

MLP_node.0.bias f4 [3]
0	0xbeccd2bc	-0.40004528
1	0x3ceaf3a7	0.028680636
2	0xb76b9ad6	-1.4043142e-05

MLP_node.2.weight f4 [3, 3]
0	0xbea9cc59	-0.33163717
1	0xbe3b5f44	-0.1829806
2	0x376e3751	1.4198785e-05
3	0x3ee808cc	0.4531921
4	0xbec2afe6	-0.38024825
5	0xb6eb1f81	-7.0072133e-06
6	0x3aefbede	0.0018291136
7	0x3ed89710	0.42302752
8	0x39b77e5f	0.00034998634

MLP_node.2.bias f4 [3]
0	0xbdfac034	-0.12243691
1	0x3e515050	0.20440793
2	0xbe258342	-0.16163352

G_conv.module_0.bias f4 [128]
0	0xbc6842ba	-0.014176065
1	0xbb472b45	-0.003039078
2	0x92a7bde1	-1.058599e-27
3	0xb7c5541a	-2.3523393e-05
4	0x3c261158	0.010135971
5	0xbcbef921	-0.023312153
6	0xbc19a86e	-0.009378536
7	0xb7b1cb2a	-2.119465e-05
8	0x3c8806ea	0.01660486
9	0xbba1b673	-0.0049350797
10	0xbd5e80f6	-0.054322205
11	0xbc9a6dc9	-0.018851178
12	0xbd4795ce	-0.04872685
13	0xbcde4e0d	-0.027136827
14	0xbd4f2d17	-0.05058011
15	0xb8953ecd	-7.116571e-05
16	0xbc96038b	-0.018312236
17	0xbc4f27df	-0.012643783
18	0xbc614e4f	-0.01375158
19	0xbda0dc61	-0.07854534
20	0xbad40c0d	-0.0016177908
21	0xb95fe706	-0.00021353
22	0xbd31ac2e	-0.043377094
23	0xbd2d1aad	-0.042261768
24	0xbdba6991	-0.091021664
25	0xbb575a4f	-0.0032860225
26	0x3ca95764	0.020671554
27	0x96c564d8	-3.1890708e-25
28	0xb98e407d	-0.00027132398
29	0xbe18d3f3	-0.14924602
30	0xbd14c025	-0.036316056
31	0xbca40bc6	-0.020025145
32	0xbd9592aa	-0.073033646
33	0x3da5ff27	0.08105307
34	0x3c8159af	0.015789835
35	0x3d548a54	0.051889732
36	0x8036843a	-5.006551e-39
37	0xbd0a5271	-0.03377003
38	0xbcb57c83	-0.022154098
39	0xbd846e93	-0.06466403
40	0xb85acb23	-5.2164436e-05
41	0x87c1bc87	-2.915022e-34
42	0x9af0fb8a	-9.9668057e-23
43	0xbbd731d2	-0.0065672183
44	0xb1b60773	-5.297744e-09
45	0xbbb0f172	-0.0053998763
46	0xbd8339f2	-0.064075366
47	0xb770f24a	-1.4361527e-05
48	0x93f9d3ac	-6.306516e-27
49	0xbd5014f5	-0.050801236
50	0x8b4aec45	-3.9081534e-32
51	0xbd03b980	-0.03215933
52	0xb9ac8084	-0.00032902148
53	0xbdf607a7	-0.12013178
54	0xbc314322	-0.010819228
55	0xbd03ca0b	-0.032175105
56	0xbd34daa4	-0.044153824
57	0x3b20e9d5	0.0024553437
58	0x3d984504	0.07435039
59	0xbd030a95	-0.031992514
60	0xbcac1f3b	-0.021010986
61	0xbd909c90	-0.07061112
62	0xbca79b74	-0.020459868
63	0xbd47afc5	-0.04875161
64	0xbd322134	-0.043488696
65	0xbcfb5ea8	-0.030684784
66	0xb619acb3	-2.28993e-06
67	0xbbc9e638	-0.0061614774
68	0xbb4c6b1b	-0.003119177
69	0xbda97f60	-0.08276248
70	0xbaa49a7e	-0.0012558249
71	0xa7b06e81	-4.896962e-15
72	0xbd81891a	-0.06324978
73	0xbd57e697	-0.052710142
74	0xb8295518	-4.037199e-05
75	0xb352ac51	-4.9051156e-08
76	0xa33c83db	-1.0219422e-17
77	0xbb80de5e	-0.0039327582
78	0x3db49e7f	0.08819293
79	0x8ac012f5	-1.8496058e-32
80	0x3cbd9ac0	0.02314508
81	0xa2eb36f8	-6.375508e-18
82	0xbd70fa3b	-0.05883239
83	0x82fa558a	-3.6783295e-37
84	0xbdc93efb	-0.09826466
85	0xbd9299db	-0.07158252
86	0x3b7b2a07	0.003832461
87	0xbd929408	-0.07157141
88	0xbd868f28	-0.06570274
89	0xbd091732	-0.033469386
90	0xad4588ea	-1.12285545e-11
91	0xbd99f0fb	-0.075166665
92	0xbdd1e5b4	-0.102488905
93	0x3d28a76f	0.041175302
94	0x3be1e739	0.006894019
95	0xba350d4f	-0.0006906585
96	0x39297fef	0.00016164755
97	0xba96e1ee	-0.0011511424
98	0x8d82c28a	-8.058702e-31
99	0x3e113eee	0.14184162
100	0xbab57279	-0.001384332
101	0x3be2faed	0.0069268853
102	0xbc885c8f	-0.016645698
103	0xbbd3c7f2	-0.0064630443
104	0xbdb887ef	-0.09010302
105	0xa1a76bd0	-1.1344898e-18
106	0x3c8eff02	0.017455582
107	0xbd09b4b9	-0.033619616
108	0xb607303c	-2.0144644e-06
109	0x3d13cb0c	0.036082312
110	0xbd670ce8	-0.056408793
111	0xa9992828	-6.801531e-14
112	0xbc2e1261	-0.010624499
113	0x3d8dd86e	0.06926046
114	0xbd90e146	-0.070742175
115	0xbd49af94	-0.04923971
116	0x9ea6144f	-1.7584333e-20
117	0x9c46131c	-6.5537403e-22
118	0x3d74ebc8	0.05979517
119	0x9173de83	-1.9237887e-28
120	0x3cd4aeef	0.025962321
121	0x99834b70	-1.3575551e-23
122	0x3d9c47e9	0.07630903
123	0x3d91bac7	0.07115703
124	0xa22591b8	-2.2438813e-18
125	0xb23e1b21	-1.1065624e-08
126	0x3b3ddc57	0.0028970444
127	0xbc38be10	-0.011275783

G_conv.module_2.bias f4 [128]
0	0x3d92acfc	0.071619004
1	0xbc8413ea	-0.016122777
2	0x3ca4012b	0.020020088
3	0x3c439f8c	0.011939894
4	0x3c7f0554	0.015565235
5	0x3d69ef30	0.057112873
6	0x3c52af21	0.012859137
7	0xa41b1564	-3.3628386e-17
8	0x3d1eb4fe	0.038746826
9	0x3c883cae	0.016630497
10	0xbc329898	-0.010900639
11	0x3af4720b	0.001864971
12	0xb5d99930	-1.6212343e-06
13	0xbcf20493	-0.029543197
14	0xb793c570	-1.7615705e-05
15	0xba9936a1	-0.0011689254
16	0xb90952c3	-0.0001309617
17	0xbc34035b	-0.010987128
18	0x99629579	-1.1714112e-23
19	0x3d20c15b	0.0392469
20	0xbb79165e	-0.0038007717
21	0x3c8d58d5	0.017254272
22	0xbc0d5a70	-0.008627519
23	0xa23777c4	-2.4864528e-18
24	0x3ba54a20	0.005044237
25	0xbbff457b	-0.007790265
26	0xbc93d20a	-0.01804449
27	0x9430c69d	-8.924899e-27
28	0x3c4dd2c7	0.01256246
29	0xbc8fc0ac	-0.017547928
30	0x855fa765	-1.0516155e-35
31	0x3d841a22	0.06450297
32	0xa926b896	-3.7019507e-14
33	0x3d33e3a3	0.043918263
34	0xb083c2e1	-9.586892e-10
35	0xbc047385	-0.008084183
36	0x3befc8c0	0.0073176324
37	0xbd0bbaad	-0.034113575
38	0xbca1aa89	-0.019734638
39	0xb8a1b4b5	-7.7107376e-05
40	0xbb8b454e	-0.004250205
41	0xbd38a711	-0.045081202
42	0xbcefd029	-0.029274063
43	0xaa4c7344	-1.815883e-13
44	0xbd1ed39c	-0.038776025
45	0xbbad3fda	-0.0052871527
46	0x3c10a33c	0.008827981
47	0xbc508499	-0.012726926
48	0xbc73e564	-0.014886234
49	0x8937c80e	-2.2121889e-33
50	0x3ce7de39	0.028304206
51	0x3cb74866	0.02237339
52	0x3ba757bd	0.0051068948
53	0xb94bf477	-0.00019450659
54	0xbc73065b	-0.014833058
55	0x3d3bd49b	0.045857053
56	0xbaf0cea3	-0.0018372129
57	0xba19281f	-0.00058424653
58	0x3c717d65	0.014739369
59	0x3d0fdfa3	0.035125386
60	0x3bd22b7e	0.006413876
61	0xb4352fc5	-1.6874317e-07
62	0x3e26448e	0.16237089
63	0x3ae9825b	0.0017815338
64	0xb4fe1d12	-4.7332338e-07
65	0xaa48b155	-1.7825093e-13
66	0xac1d1ace	-2.2325921e-12
67	0x3a9075d4	0.0011021444
68	0xbc848ef1	-0.016181441
69	0x3cf1a52f	0.029497711
70	0x3c79a78b	0.015237699
71	0x3c4427d7	0.011972389
72	0xbca01bd1	-0.019544514
73	0xbc834c84	-0.016027696
74	0x3c97d845	0.018535743
75	0xbcaaa536	-0.020830732
76	0xbc659553	-0.014012652
77	0x3d0916a0	0.033468843
78	0xbbb39402	-0.0054802904
79	0x3b0778d4	0.0020671384
80	0xbcfd7d9e	-0.030943688
81	0xbd1c644f	-0.0381816
82	0xbbbafb10	-0.0057061985
83	0xa7c72a08	-5.5279166e-15
84	0x3ae9ab06	0.0017827458
85	0xb7bdc07e	-2.2620192e-05
86	0xbb445cf1	-0.0029962624
87	0xbbfbe277	-0.007686909
88	0x3b1e841d	0.0024187632
89	0xbc197100	-0.00936532
90	0xbbe8beb4	-0.0071028117
91	0xbc32907e	-0.010898707
92	0x3c57fcad	0.013182801
93	0xbc9c52d5	-0.019082466
94	0xbcb65d16	-0.022261184
95	0xb71e7202	-9.444078e-06
96	0xbc95b111	-0.018272908
97	0xaf9cbe1d	-2.8511318e-10
98	0xbbbeb7b5	-0.0058202394
99	0xbd0a7f3d	-0.03381275
100	0x85c62c00	-1.8635994e-35
101	0xbb8eb338	-0.0043548606
102	0xbd092b48	-0.03348854
103	0x3ce291c2	0.027657393
104	0x3b072554	0.0020621615
105	0xbd069dd9	-0.03286538
106	0x8424c550	-1.9368709e-36
107	0xba00c821	-0.0004912634
108	0xbb82eb70	-0.0039953515
109	0x3c8cd733	0.017192459
110	0x3b9326bd	0.004490702
111	0x3c95a630	0.018267721
112	0xbb8bba6e	-0.0042641675
113	0xbd10ac31	-0.035320465
114	0xbca75785	-0.020427475
115	0xbb752ef3	-0.0037412017
116	0xbc571461	-0.013127417
117	0x8076d4b5	-1.0912893e-38
118	0x3d0c85c6	0.034307264
119	0xb9687f20	-0.00022172602
120	0x3c841987	0.016125454
121	0x3bff568b	0.007792299
122	0xbbbe3ae2	-0.005805359
123	0xbb5a937b	-0.0033352065
124	0x800e087f	-1.288745e-39
125	0xb86c3d7a	-5.632404e-05
126	0xbb029191	-0.001992319
127	0xba7ca8aa	-0.000963817

G_conv.module_4.bias f4 [128]
0	0xb58a6ca7	-1.0313423e-06
1	0x3bd7e05e	0.006588026
2	0x3c2b0c8b	0.010440002
3	0xbc66435a	-0.014054144
4	0x3ba61623	0.005068557
5	0xbbac3dcf	-0.0052563916
6	0xa9eae28d	-1.0430988e-13
7	0xb738cce4	-1.10149595e-05
8	0xbd37fd7c	-0.044919476
9	0x80f95106	-2.2896104e-38
10	0x3afd9c16	0.0019348885
11	0x3a924ee3	0.0011162426
12	0xa84b7747	-1.1294628e-14
13	0xb700f8f2	-7.687357e-06
14	0xbd3c8283	-0.046022903
15	0xbcf12007	-0.029434217
16	0x3c4a4572	0.012345659
17	0x870085ad	-9.668934e-35
18	0x3d29e45f	0.041477557
19	0xbc1ee9b7	-0.009699277
20	0xbc1b9c2d	-0.009497684
21	0xbbc91d2d	-0.006137511
22	0xbc2783ef	-0.0102243265
23	0xbad5f319	-0.0016323059
24	0xb7753474	-1.4615351e-05
25	0x3c7dc84d	0.01548965
26	0xbcd4d72e	-0.025981512
27	0xbc265f14	-0.010154504
28	0x3cc8c8d5	0.024509827
29	0x888698e6	-8.100778e-34
30	0x3c6ad189	0.014332184
31	0x3cdcaf8d	0.026939178
32	0xbcf84b1c	-0.030309252
33	0xbd3a0604	-0.045415893
34	0x3cfbb822	0.03072745
35	0xba595f39	-0.00082920823
36	0x3c0acfc1	0.008472384
37	0x9b080972	-1.1252708e-22
38	0xbcb41128	-0.021980837
39	0xbc73c382	-0.014878156
40	0xbcc2afa0	-0.023765385
41	0xbc1a3cfa	-0.009413952
42	0xbd06cdd3	-0.032911133
43	0xb73cd10a	-1.1254344e-05
44	0xba12a976	-0.00055947097
45	0x3b8de741	0.004330546
46	0x3d82933b	0.06375738
47	0xbc43725a	-0.011929119
48	0xb96e37d2	-0.00022718243
49	0x3becbe87	0.007224861
50	0xa7acc1c9	-4.7949692e-15
51	0xbcd3caaa	-0.025853474
52	0x3d17726e	0.036974363
53	0x3ce2f657	0.027705355
54	0xbabfa8f0	-0.0014622491
55	0xac0d28c7	-2.0059941e-12
56	0x3be044da	0.0068441452
57	0x3d5e52bb	0.054278117
58	0xbd23f67c	-0.040029988
59	0xbc140f34	-0.009036828
60	0xb8290863	-4.030055e-05
61	0x3ad4b73a	0.0016228922
62	0xbae69718	-0.0017592637
63	0x3ce2c8c6	0.027683627
64	0x3a7eeca4	0.0009724593
65	0x3cdcb75f	0.026942907
66	0x3d6eb21d	0.05827533
67	0xbcdff8b2	-0.027340267
68	0xbc853c41	-0.016264083
69	0xb7f99a95	-2.9755096e-05
70	0xb29e3f1d	-1.8422321e-08
71	0x3d964546	0.073374316
72	0x3d1850a7	0.03718629
73	0xabc23d44	-1.3801534e-12
74	0x9f74fbbc	-5.187724e-20
75	0x3d61029d	0.054934133
76	0x3ce2ea78	0.027699694
77	0xbb10d566	-0.0022099852
78	0xbc27f55c	-0.010251369
79	0x3c8f580b	0.017498037
80	0xbc3a244c	-0.011361193
81	0xbbe9b178	-0.0071317516
82	0x3d6ec2b4	0.058291152
83	0xbbfeab70	-0.007771902
84	0xb33745d6	-4.2671523e-08
85	0xbc3a2654	-0.011361677
86	0xbc71a547	-0.014748878
87	0x3d55cb7b	0.052196007
88	0x3c806756	0.015674274
89	0x3cdab375	0.0266969
90	0xb2294198	-9.852009e-09
91	0xba672961	-0.00088181166
92	0xbbf97422	-0.007612721
93	0xbb9ffb1a	-0.0048822286
94	0xbd15d76b	-0.03658239
95	0xbca64ad4	-0.020299353
96	0xbb9d7ff9	-0.0048065153
97	0xbd10fb5c	-0.035395965
98	0xbc0b2f4c	-0.008495163
99	0xbab2bdf3	-0.0013636932
100	0xbd04c381	-0.03241301
101	0xb7fa69f3	-2.9851659e-05
102	0xb61f1384	-2.3704206e-06
103	0x3bba48ec	0.0056849625
104	0x3d069400	0.032855988
105	0xb98fc657	-0.0002742286
106	0xbc05e485	-0.008172159
107	0xbc59a1ae	-0.013283176
108	0x3c1b0558	0.009461723
109	0x3c9e8ee5	0.019355247
110	0xbce2980f	-0.027660398
111	0x3d114c0f	0.035472926
112	0xbc14e720	-0.009088308
113	0x3b88356a	0.004156758
114	0xbc5e218d	-0.013557804
115	0xb4583902	-2.0137307e-07
116	0xb78e7ac2	-1.6984883e-05
117	0xbc8bf266	-0.017083358
118	0xbc78b525	-0.015179907
119	0x3cc5eb00	0.024159908
120	0xb509e3dc	-5.1368056e-07
121	0x8e4a722a	-2.495339e-30
122	0xbcc60d3d	-0.024176234
123	0xbceef4f7	-0.029169543
124	0xbbc51156	-0.0060140295
125	0xbce26605	-0.027636537
126	0x3d02a381	0.03189421
127	0xbcd65d97	-0.026167674

MLP_gate.0.weight f4 [256, 128]
0	0x0049f4ca	6.791805e-39
1	0xbe633045	-0.22186382
2	0xbdf94a0c	-0.121723264
3	0x31dac51a	6.367043e-09
4	0xbd4c02ab	-0.049807232
5	0x801db0d1	-2.726659e-39
6	0x002cbc87	4.108393e-39
7	0x001ea529	2.814313e-39
8	0x8716637f	-1.1313985e-34
9	0x80495af1	-6.736615e-39
10	0xbdd308c5	-0.10304407
11	0xb49204af	-2.7198027e-07
12	0x001bbb75	2.546805e-39
13	0x00310b56	4.504006e-39
14	0xbe24182d	-0.16024847
15	0xbdff3343	-0.12460949
16	0x34ce0400	3.83734e-07
17	0x8047df3c	-6.600402e-39
18	0xbca1ac7b	-0.019735565
19	0x39afc440	0.0003352482
20	0x0c47c02a	1.538823e-31
21	0x00455c7f	6.36983e-39
22	0xbbea08fd	-0.007142185
23	0x00452f57	6.353632e-39
24	0x80019aec	-1.47411e-40
25	0xbdbdc595	-0.092662014
26	0xbe1010c6	-0.14068899
27	0xab48b8cc	-7.131073e-13
28	0xbd8070cc	-0.06271514
29	0x8247aa3d	-1.4669067e-37
30	0xbdb2b2c2	-0.087255016
31	0x3be82e8d	0.0070856274
32	0x39b2578c	0.00034016033
33	0xbd845b5a	-0.064627364
34	0xbe266ad8	-0.16251695
35	0x803c18fa	-5.51909e-39
36	0xbd74b9f9	-0.05974767
37	0x004bf174	6.974279e-39
38	0x3d98cc03	0.07460787
39	0x3a25f7b2	0.000633116
40	0xbe37c2e6	-0.17945442
41	0x80031d31	-2.85978e-40
42	0x21b7606d	1.2426086e-18
43	0x802fff97	-4.407957e-39
44	0x0043907d	6.204811e-39
45	0xbd95b9b4	-0.07310811
46	0xbd6ed1ad	-0.05830543
47	0x80453857	-6.35686e-39
48	0x80102a0a	-1.484449e-39
49	0xbdbfbeaa	-0.09362538
50	0x0048d4b4	6.688459e-39
51	0x0038ff07	5.234274e-39
52	0xbe1efc81	-0.1552601
53	0x3cab482e	0.020908441
54	0xbd44e487	-0.048069503
55	0x001994c1	2.34925e-39
56	0xbd2eaba9	-0.042644177
57	0x3cfcd255	0.030862013
58	0xba1f73bd	-0.0006082615
59	0x356e6d01	8.882053e-07
60	0x803f9e2a	-5.842375e-39
61	0xbdf6ca78	-0.120503366
62	0xa61664c5	-5.217827e-16
63	0x2dd555e1	2.4253434e-11
64	0xbda2462c	-0.079235405
65	0xbe462e07	-0.19353496
66	0xbdc3a9a8	-0.09553844
67	0x3c0a95de	0.008458583
68	0xaa34b9e7	-1.605171e-13
69	0x803ffa6a	-5.875468e-39
70	0x224fcf94	2.8163622e-18
71	0xbd828fa6	-0.06375055
72	0xbe20a51d	-0.15687986
73	0x00084f57	7.63146e-40
74	0x8008f7a4	-8.2352e-40
75	0x3d55a471	0.052158777
76	0xbdf29c8f	-0.118462674
77	0x00068d25	6.01646e-40
78	0xafec0e01	-4.29381e-10
79	0xbd7d9971	-0.06191391
80	0xba244da7	-0.00062676746
81	0x0048cd53	6.685812e-39
82	0xbd994d9e	-0.074855074
83	0x00450ede	6.341983e-39
84	0x804a4950	-6.822126e-39
85	0xa95c0d7c	-4.886151e-14
86	0x111293fe	1.1562973e-28
87	0xbd3c5262	-0.045977004
88	0xbe4b2804	-0.19839483
89	0xbe86921e	-0.26283354
90	0x2f52ea08	1.9182533e-10
91	0x8009084a	-8.29493e-40
92	0x00338702	4.732042e-39
93	0x001193de	1.614248e-39
94	0xbd170751	-0.03687221
95	0x35c417a0	1.4610014e-06
96	0x003626b0	4.972995e-39
97	0x390060ad	0.00012243046
98	0x320850d8	7.934624e-09
99	0xbdc0c005	-0.09411625
100	0xbd6efb76	-0.05834528
101	0x0043d1d1	6.228246e-39
102	0x8012db97	-1.731813e-39
103	0x3560c35b	8.373078e-07
104	0xbc92520d	-0.01786139
105	0x80186285	-2.239394e-39
106	0xaea1151d	-7.325183e-11
107	0xbdbbf0e9	-0.09176809
108	0xbd92b19c	-0.071627825
109	0xbe8edd70	-0.27903318
110	0xbd9b9f08	-0.07598692
111	0x3c8d8ff7	0.017280562
112	0xbdfcfbb2	-0.123526946
113	0xbd3878c8	-0.04503706
114	0x322bda94	1.0003209e-08
115	0x0036a4d8	5.018252e-39
116	0x2f3c2bf0	1.711411e-10
117	0x3b745180	0.0037280023
118	0xbc4a2e99	-0.012340211
119	0xbda16083	-0.07879736
120	0x001813b2	2.211117e-39
121	0x00134136	1.768268e-39
122	0x381aa297	3.6867885e-05
123	0xbe1604a6	-0.1465021
124	0x8028838d	-3.720611e-39
125	0x832f52dd	-5.1523e-37
126	0x288e9e8f	1.583393e-14
127	0x3baaff81	0.0052184467
128	0x8017a994	-2.17305e-39
129	0xbc073699	-0.008252763
130	0xbbf1d31c	-0.0073799025
131	0x2335f538	9.863957e-18
132	0xbdbd208b	-0.09234723
133	0x800bcd58	-1.083854e-39
134	0x001e9649	2.808977e-39
135	0x804900e2	-6.704308e-39
136	0x0013b798	1.810735e-39
137	0x8049783e	-6.747126e-39
138	0xbd5d80d4	-0.05407794
139	0x31f8ef90	7.244985e-09
140	0x8021caae	-3.103279e-39
141	0x801089d3	-1.51881e-39
142	0xbd992e90	-0.07479584
143	0xbdf988e1	-0.12184311
144	0xbbe10078	-0.006866511
145	0x001c783a	2.614523e-39
146	0xbe53e7f8	-0.20693958
147	0x3bb6c651	0.0055778404
148	0x800cb159	-1.165646e-39
149	0x81900ceb	-5.291578e-38
150	0xbd9fa1f3	-0.07794561
151	0x00170068	2.112362e-39
152	0x002f74f1	4.358219e-39
153	0x3c041795	0.008062263
154	0xbda17aeb	-0.07884773
155	0xac2dca73	-2.469716e-12
156	0xbdcb3393	-0.099219464
157	0x00dd6581	2.0332057e-38
158	0xbd7ce57a	-0.061742283
159	0x3c9ae776	0.018909197
160	0x3a0f607f	0.0005469396
161	0xbe26f90b	-0.1630594
162	0xbdaab0e7	-0.08334523
163	0x0041398f	5.989955e-39
164	0xbc84c289	-0.016206043
165	0x0037afbe	5.113997e-39
166	0xbd6b2575	-0.05740877
167	0xb4e3e22d	-4.244661e-07
168	0xbe466719	-0.19375266
169	0x80364ca8	-4.986616e-39
170	0x80214861	-3.056536e-39
171	0x801c6d83	-2.610679e-39
172	0x004a728b	6.836917e-39
173	0xbdfe59bd	-0.1241946
174	0xbdc7384c	-0.09727535
175	0x800d80dd	-1.240089e-39
176	0x80210826	-3.033494e-39
177	0xbe04082d	-0.12893744
178	0x80359376	-4.92018e-39
179	0x001876b0	2.246629e-39
180	0x3cca82d2	0.024720583
181	0xbde25668	-0.11051637
182	0xbdeab1b5	-0.11459676
183	0x003296e2	4.645901e-39
184	0xbe3e9487	-0.18611346
185	0xbe441fbd	-0.19152732
186	0xbd0a49d1	-0.033761803
187	0xba0e1373	-0.0005419768
188	0x8011cd0c	-1.63476e-39
189	0xbd8a949b	-0.067666255
190	0xae05f6ad	-3.045979e-11
191	0xb701dcf3	-7.740443e-06
192	0x3b9f12c4	0.004854532
193	0xbb32b097	-0.00272659
194	0xbd985000	-0.07437134
195	0xbb206a0c	-0.0024477271
196	0x17163965	4.8540056e-25
197	0x802691d9	-3.542069e-39
198	0xa0585183	-1.8322882e-19
199	0xbdbc2902	-0.09187509
200	0x3a9b33f9	0.001184105
201	0x801d17a9	-2.671717e-39
202	0x80330d36	-4.68835e-39
203	0xbdcda5d2	-0.10041393
204	0xbe094389	-0.13404669
205	0x801d6cbe	-2.702239e-39
206	0x308557fd	9.702031e-10
207	0xbe07e17b	-0.13269608
208	0xbc520d52	-0.012820559
209	0x800af6ab	-1.006843e-39
210	0xbdfd013e	-0.123537526
211	0x9a19807c	-3.1743447e-23
212	0x0003d2c8	3.5112e-40
213	0x9ced3eaa	-1.5699543e-21
214	0x954a3f7b	-4.0843652e-26
215	0xbe0dfaa5	-0.13865145
216	0xbd30dee9	-0.043181334
217	0xbac0077d	-0.0014650669
218	0x2cc8273d	5.688698e-12
219	0x801473f4	-1.878306e-39
220	0x80142946	-1.851516e-39
221	0x00078779	6.91447e-40
222	0xbdffaddc	-0.12484333
223	0xab8289e7	-9.275331e-13
224	0x001e610c	2.789879e-39
225	0x3ca02480	0.019548655
226	0xada52511	-1.8774789e-11
227	0xbd6cd5a0	-0.057820916
228	0x3cba2083	0.02272058
229	0x00497784	6.746865e-39
230	0x003f16d7	5.79383e-39
231	0xba7751b7	-0.00094344787
232	0xbe3e3d96	-0.1857818
233	0xaa5518ca	-1.8926801e-13
234	0xaaba433a	-3.3086885e-13
235	0xbdbd51be	-0.09244107
236	0xbe561c11	-0.20909144
237	0x3c535464	0.012898538
238	0xbe221aec	-0.15830582
239	0xbc2a7b0b	-0.010405312
240	0xbdc74a85	-0.0973101
241	0xbd8d1b84	-0.06890014
242	0x311b930d	2.2639057e-09
243	0x002c8183	4.087222e-39
244	0x1171cd10	1.9074738e-28
245	0xbe19d277	-0.15021692
246	0xbc4ff033	-0.012691545
247	0xbd27c361	-0.040957812
248	0x974c292d	-6.5967926e-25
249	0x001a2ae0	2.403104e-39
250	0x34210318	1.4995419e-07
251	0xbe4f5e55	-0.20250829
252	0x003b6245	5.453547e-39
253	0x00015521	1.22374e-40
254	0xb49553d7	-2.7814414e-07
255	0x3aacd2a2	0.0013185332

MLP_gate.0.bias f4 [256]
0	0x3d3f531b	0.046710115
1	0xbe16341e	-0.14668319
2	0x3d0fc39d	0.03509866
3	0xbcb83721	-0.022487225
4	0x3ba39e7d	0.0049932585
5	0x3d50a01b	0.05093394
6	0xbda27e16	-0.07934205
7	0x3d706a39	0.05869505
8	0x3c22be4f	0.009933068
9	0x3c24d20a	0.010059843
10	0xbccbd0fe	-0.024879929
11	0xbca6b0ce	-0.020347979
12	0x3dda5cb9	0.10662217
13	0xbdd66099	-0.10467643
14	0x3d8fbc9a	0.07018395
15	0xbd6e4f5a	-0.058181144
16	0xbc0ba1e7	-0.008522487
17	0xbd36544a	-0.044513978
18	0x3cd2b2be	0.025719997
19	0x3d1ec1be	0.038758986
20	0x3dbaac75	0.09114925
21	0x3d8423ef	0.06452166
22	0x3d799188	0.060929805
23	0xbd1ede25	-0.038786072
24	0x3da82074	0.08209315
25	0xbd7d06ac	-0.06177394
26	0xbe1e43d9	-0.1545557
27	0xbd413b3e	-0.04717564
28	0x3d0c4034	0.034240916
29	0xbd1baaf1	-0.03800482
30	0xbd583557	-0.052785244
31	0x3a74c228	0.0009336793
32	0xbd02b210	-0.031908095
33	0xbd8699b3	-0.065722845
34	0xbd2af344	-0.041735902
35	0xbe289d67	-0.16466294
36	0xbb142430	-0.0022604577
37	0xbd9a6ba2	-0.075400606
38	0xbd1245d5	-0.03571113
39	0x3dd7ff26	0.105467126
40	0xbd31308b	-0.043259185
41	0xbba7733b	-0.005110172
42	0xbd2eb567	-0.042653468
43	0xbdbeb933	-0.09312668
44	0xbe07a32c	-0.13245839
45	0x3d1594d3	0.036518883
46	0xbd062e11	-0.032758776
47	0xbd33d721	-0.043906335
48	0xbd41cc71	-0.04731411
49	0xbd03eec4	-0.032210127
50	0xbd626f9d	-0.055282224
51	0xbcc239b4	-0.023709156
52	0xbd446bb5	-0.04795428
53	0xbdfe6f34	-0.12423554
54	0xbdc41a4b	-0.095753275
55	0xbd1a96a0	-0.037741303
56	0xbcf707c7	-0.030155076
57	0x3c3ea6f9	0.011636489
58	0x3db3b891	0.087754376
59	0x3cf45205	0.029824266
60	0xbdd15e93	-0.10223117
61	0x3a52f79a	0.000804776
62	0x3e0132b2	0.12616995
63	0x3dddc869	0.10829241
64	0x3cbba595	0.022906104
65	0xbd1b9e00	-0.037992477
66	0x3d4fe0af	0.050751384
67	0x3da9531f	0.08267807
68	0x3c257184	0.010097865
69	0x3d37d4f7	0.044880833
70	0xbddddb58	-0.10832852
71	0x3bbdae5a	0.0057886066
72	0xbd456abe	-0.0481975
73	0xbdc9a3a9	-0.09845669
74	0x3cb78298	0.02240114
75	0x3c3f89c9	0.011690565
76	0x3afe018b	0.0019379122
77	0xbdcc954a	-0.09989412
78	0x3d709400	0.058734894
79	0xbd37eb73	-0.044902276
80	0x3c816831	0.015796753
81	0xbe13d9c6	-0.14438543
82	0xbbc2c48d	-0.005943841
83	0x3d01113f	0.031510588
84	0x3c936b2d	0.017995441
85	0xbc330dea	-0.01092861
86	0x3d0011d2	0.031266995
87	0x3d9005b4	0.07032338
88	0x3d1bdbdc	0.03805147
89	0x3d8e7484	0.06955817
90	0x3dd1c900	0.10243416
91	0xbc18cf56	-0.0093267765
92	0x3c9598b7	0.018261297
93	0xbdd49e76	-0.103817865
94	0x3dd7eef7	0.10543626
95	0xbb84babe	-0.0040505817
96	0xbdb4fee2	-0.088376775
97	0xbcea8e13	-0.0286322
98	0xbc195af1	-0.009360061
99	0xbce45e88	-0.027877107
100	0xbe18f349	-0.14936556
101	0x3af3fabc	0.0018614153
102	0xbd16abc8	-0.036784917
103	0x3d5e6e3e	0.054304354
104	0x3ca2c465	0.019869039
105	0xbc16869e	-0.009187369
106	0x3db8b306	0.09018521
107	0xbd6ac00d	-0.05731206
108	0xbc84d3ac	-0.016214214
109	0x3c581f6c	0.013191085
110	0x3bfdb6a5	0.00774272
111	0xbde40b3a	-0.11134954
112	0xbc0bb418	-0.008526824
113	0x3cad58d2	0.021160517
114	0xbd1ac88d	-0.037788916
115	0xbdfa07ba	-0.12208505
116	0xbd56a683	-0.05240489
117	0x3d368036	0.044555865
118	0x3cc56bad	0.024099195
119	0x3c88e44a	0.01671042
120	0xbdd6f9ae	-0.10496841
121	0x3d68d9a4	0.056848183
122	0x3d6c87d5	0.057746727
123	0xbd5eaec8	-0.054365903
124	0x3c7421cf	0.014900639
125	0xbded76ea	-0.11594947
126	0x3db97365	0.09055213
127	0xbd8e51c6	-0.06949191
128	0x3e1dc943	0.15408807
129	0xbdb4a995	-0.08821408
130	0x3e298d03	0.16557698
131	0xbd8f5499	-0.069985576
132	0x3be485f6	0.006973977
133	0xbd5614e3	-0.052266013
134	0x3d37c967	0.044869807
135	0xbd0e84da	-0.034794666
136	0x3c09ffe2	0.008422824
137	0x3e45e08e	0.19323942
138	0x3d87e0a2	0.06634642
139	0xbe040f9b	-0.12896578
140	0x3def8cd8	0.11696786
141	0x3db29bd1	0.08721126
142	0x3bcdd66f	0.006281666
143	0x3d23a959	0.039956424
144	0x3d1c04b9	0.03809044
145	0xbddc7cd9	-0.10766
146	0x3d8f21dc	0.0698888
147	0x3c6c3605	0.014417176
148	0x3e0ec348	0.13941681
149	0x3c96f442	0.018427018
150	0xbdc6848f	-0.09693252
151	0xbcb919ef	-0.022595374
152	0xbd73ed58	-0.05955252
153	0xbd288fe9	-0.04115287
154	0x3c0e62db	0.008690561
155	0xbd1d573b	-0.038413268
156	0x3d80011e	0.06250213
157	0x3cffb85f	0.031215845
158	0x3d1e2209	0.038606677
159	0x3d17cbcc	0.03705959
160	0xbd0c4008	-0.034240752
161	0x3c5497e7	0.0129756695
162	0xbd1c837c	-0.03821133
163	0x3d08b35d	0.03337418
164	0xbdf12bf4	-0.117759615
165	0xbe1aaebe	-0.15105721
166	0x3e21ba62	0.15793756
167	0xbe453f8e	-0.19262525
168	0xb9ad7c33	-0.00033089667
169	0xbe25711d	-0.1615643
170	0x3e278f3e	0.16363236
171	0x3cdf8cf1	0.027288886
172	0x3d556614	0.052099302
173	0xbd28e93a	-0.041238047
174	0xbbccc25c	-0.0062487554
175	0x3da8c590	0.08240807
176	0x3cb5705a	0.0221483
177	0x3cae8eda	0.021308351
178	0x3db8ec7c	0.09029481
179	0xbdc3ced8	-0.09560937
180	0xbcad9819	-0.02119069
181	0x3cf64d8b	0.030066272
182	0x3d10ce09	0.03535274
183	0x3d2bdd6e	0.04195922
184	0xbdce8a96	-0.10085027
185	0xbe085420	-0.13313341
186	0x3ca600e7	0.020264102
187	0x3d3e41a8	0.046449333
188	0x3d3ad2e9	0.045611296
189	0x3e01eae6	0.12687263
190	0xbe3862ef	-0.1800649
191	0x3d46d632	0.048544116
192	0x3ccedb5d	0.025251085
193	0x3bccb8a8	0.0062475987
194	0x3cf2432f	0.029573051
195	0xbd1d2072	-0.03836102
196	0x3d8d3d88	0.06896502
197	0xbdc8a622	-0.09797312
198	0x3d88bf29	0.06677086
199	0xbdc60b92	-0.096701756
200	0x3cffb9e8	0.031216577
201	0x3d48b40f	0.048999842
202	0xbbcef2a0	-0.0063155442
203	0x3c38a067	0.011268712
204	0xbd1ceda6	-0.038312577
205	0xbd26979f	-0.04067194
206	0x3e1412cb	0.14460294
207	0xbdc2f9d4	-0.09520307
208	0x3c3e8afa	0.011629814
209	0xbd6c7a18	-0.057733625
210	0xbd667796	-0.05626639
211	0xbd6158e4	-0.055016413
212	0x3e12ecbf	0.14348124
213	0xbd988998	-0.07448119
214	0x3db37135	0.08761827
215	0xbe3012e5	-0.17194708
216	0xbd3e0464	-0.046390906
217	0x3d5c6403	0.053806316
218	0x3e84029d	0.25783244
219	0xbdfa0b6f	-0.12209212
220	0xbca52b7f	-0.020162342
221	0xbdb309e1	-0.087421186
222	0xbe1f6f20	-0.15569735
223	0xbc998890	-0.018741876
224	0x3b955034	0.00455668
225	0x3dc30aac	0.0952352
226	0x3df6022f	0.12012135
227	0xbcc5402d	-0.024078453
228	0x3aff94e6	0.0019499331
229	0xbda68c01	-0.081321724
230	0xbd94874d	-0.07252369
231	0x3e404f1b	0.18780176
232	0xbe02423b	-0.12720577
233	0x3c9bffde	0.019042905
234	0x3c7d5ec7	0.015464491
235	0xbd926eaf	-0.071500175
236	0x3d5f90f3	0.054581594
237	0x3ddabc06	0.10680394
238	0x3e5776b7	0.2104138
239	0xbc59cc61	-0.013293357
240	0x3cd61830	0.02613458
241	0x3de1aef3	0.11019697
242	0x3c10ab54	0.00882991
243	0x3d1a8ef4	0.037733987
244	0x3dc55112	0.096346036
245	0x3e68f434	0.22749406
246	0xbe1cfbf6	-0.1533049
247	0x3d52285c	0.05130802
248	0x3d6e143c	0.058124766
249	0xbd882dc4	-0.06649354
250	0x3e179098	0.14801252
251	0xbd2179db	-0.03942285
252	0xbd082469	-0.03323785
253	0x3c01a6fa	0.0079133455
254	0x3de5dd79	0.11223883
255	0xbd76683f	-0.06015801

MLP_G.0.weight f4 [96, 128]
0	0x3d8fbe69	0.0701874
1	0x3e01d8d7	0.12680374
2	0x3d80cd55	0.06289164
3	0x3d9f6c97	0.07784384
4	0x3c960e49	0.018317359
5	0x3ab0be94	0.0013484531
6	0xbce8a5f1	-0.02839944
7	0x3d27e4f5	0.040989835
8	0x3de3b5c5	0.11118654
9	0x3b0518df	0.0020309014
10	0x3c98b03a	0.018638719
11	0xbd935919	-0.071947284
12	0xbda30f63	-0.07961919
13	0x3c960894	0.018314637
14	0xbca1182a	-0.019664843
15	0x3d3bb6c2	0.04582859
16	0xbd0ef771	-0.034903947
17	0x3c780384	0.015137557
18	0xbdf5d4a6	-0.1200345
19	0xbd8fbe6b	-0.07018741
20	0x3d4bf358	0.049792618
21	0xbdbc85a9	-0.09205181
22	0xbd82e055	-0.06390444
23	0xbc8c5e3b	-0.017134776
24	0xbd790b33	-0.060801696
25	0xbd6f22c7	-0.058382776
26	0x3d5cac62	0.053875335
27	0x3d70d96e	0.058801107
28	0xbbf58c7b	-0.007493553
29	0xbcc592b6	-0.024117809
30	0xbc4e8734	-0.012605477
31	0xbb1422a4	-0.0022603655
32	0x3e2f4ac9	0.17118372
33	0xbc31f94d	-0.010862661
34	0x3d825f94	0.06365886
35	0x3decabb4	0.11556187
36	0x3d9c0919	0.07618923
37	0xbce754e6	-0.028238725
38	0x3dbc8159	0.092043586
39	0xbd507d2f	-0.050900634
40	0x3aa989f5	0.0012934791
41	0xbc9fe2f6	-0.019517403
42	0x3da31c00	0.07964325
43	0x3dd5bd90	0.10436547
44	0xbd2c8dba	-0.04212735
45	0xbdcb3616	-0.099224254
46	0xbd066e8b	-0.032820266
47	0xbd69874c	-0.057013795
48	0x3d621992	0.055200167
49	0xbec5020d	-0.38478127
50	0x3cea14bf	0.028574346
51	0xbcfb0c36	-0.030645471
52	0xbe09aedc	-0.1344561
53	0xbe2326d4	-0.1593278
54	0xbe46a81b	-0.19400065
55	0xbac0b5ce	-0.001470262
56	0x3c10fa1f	0.008848696
57	0xbdd27f3d	-0.10278175
58	0xbe8a1483	-0.26968774
59	0x3c5672e2	0.013088914
60	0x3dbc98d8	0.0920884
61	0xbcb819c7	-0.02247323
62	0xbd9dbf1d	-0.077024676
63	0xbd3e904d	-0.046524335
64	0x3c95504b	0.018226763
65	0x3d195104	0.03743078
66	0x3c854ecc	0.016272925
67	0xbcc9d568	-0.024637893
68	0xbd03818b	-0.032105964
69	0x3df65260	0.120274305
70	0xbd49d7a3	-0.049277913
71	0x3c1cf50f	0.009579911
72	0xbca4d8c8	-0.0201229
73	0x3cb427fb	0.02199172
74	0x3d193ee2	0.037413485
75	0xbcb28079	-0.021789776
76	0xbcaa0a7d	-0.020756954
77	0xbc31f4bb	-0.010861571
78	0x3db49b50	0.08818686
79	0x3e8ead34	0.27866518
80	0x3c9e05f2	0.019289944
81	0x3cb71ad8	0.022351667
82	0xbdefb2ea	-0.11704047
83	0xbdabfbce	-0.08397637
84	0xbb91851b	-0.0044409162
85	0x3aa2cc7c	0.001242056
86	0xbded6d0c	-0.11593065
87	0xbdd96b75	-0.10616199
88	0x3e2160ce	0.15759584
89	0xbd7dc698	-0.061956972
90	0xbb992d2f	-0.0046745758
91	0xbd44011d	-0.047852624
92	0xbcd3ebe4	-0.025869317
93	0xbd99bb08	-0.075063765
94	0xbde9512a	-0.11392434
95	0xbc829745	-0.015941272
96	0x3cbe7f3c	0.02325403
97	0x3da31e80	0.07964802
98	0xbde8a3f6	-0.11359398
99	0xbd7d60c6	-0.06185987
100	0x3d0fcf76	0.03510996
101	0x3b51b0d0	0.0031996258
102	0xbcb23bef	-0.021757094
103	0x3c2d97e1	0.010595293
104	0x3c8d85ed	0.017275775
105	0xbca5f967	-0.020260526
106	0x3e96c02c	0.2944349
107	0x3e79efcd	0.24407883
108	0x3d8ac913	0.06776633
109	0xbdafa4f0	-0.08576381
110	0x3d8ddc8f	0.06926834
111	0x3e7597ce	0.2398369
112	0x3cfc2d4d	0.03078332
113	0xbcbc1aea	-0.022962052
114	0x3bee9da7	0.007281977
115	0xbd7b3734	-0.061331943
116	0x3d2f02f2	0.04272742
117	0xbc95aaf8	-0.01827
118	0xbcda04e3	-0.026613658
119	0xbda4b8fc	-0.080430955
120	0xbdf966eb	-0.12177833
121	0x3db8bb98	0.09020156
122	0x3d2e263c	0.042516932
123	0x3d87b4a7	0.066262536
124	0x3d25a02c	0.040435955
125	0x3d2e65cf	0.04257756
126	0x3d43ecda	0.0478333
127	0x39707acd	0.0002293393
128	0x3c7553ca	0.01497359
129	0x3d86990d	0.06572161
130	0xbc00ecb8	-0.007868938
131	0xbd53a27c	-0.05166863
132	0xbcba6d38	-0.022757158
133	0xbd44c332	-0.048037715
134	0xbc3a3539	-0.011365228
135	0xbdb9c3b9	-0.09070534
136	0xbcd557bf	-0.026042817
137	0xbd589069	-0.052872095
138	0x3cc13086	0.023582708
139	0x3d60f8bf	0.054924723
140	0xbc7d4162	-0.015457483
141	0xbd2c0b72	-0.042003103
142	0x3db5a35b	0.08869048
143	0x3d073e25	0.03301825
144	0xbcdc0cd3	-0.026861584
145	0x3daaf4dc	0.083474845
146	0xbc951319	-0.018197583
147	0xba0fd582	-0.0005486832
148	0xbde8ebff	-0.11373138
149	0xbd098518	-0.033574194
150	0x3d835159	0.06412
151	0xbd5b013a	-0.053467967
152	0xbd2b64e5	-0.041844267
153	0xbc14a16d	-0.00907169
154	0xbd0887b0	-0.033332527
155	0xbd37e057	-0.04489168
156	0xbdba009c	-0.090821475
157	0xbc0f7f21	-0.008758337
158	0xbd5c1914	-0.053734854
159	0x3dde121a	0.10843296
160	0xbd089136	-0.03334161
161	0x3c747b7f	0.014922022
162	0x3d7ab312	0.06120593
163	0xbd99d053	-0.07510438
164	0x3d491b03	0.049098026
165	0x3d922a45	0.071369685
166	0xbd5d4207	-0.054018047
167	0x3d7d0850	0.061775506
168	0x3d6455f2	0.055746026
169	0x3d866912	0.06563009
170	0xbd6f1f51	-0.058379475
171	0x3d3e78e4	0.04650201
172	0xbddd8bb3	-0.10817661
173	0xbd63dee4	-0.055632487
174	0x3db454b3	0.088052176
175	0xbda687be	-0.081313595
176	0x3dde5f63	0.10858037
177	0xbc666af3	-0.014063585
178	0xbd8f1868	-0.06987077
179	0x3d1a6bb5	0.037700374
180	0xbd9cf535	-0.07663957
181	0xbd9eb15f	-0.077486746
182	0xbdadf980	-0.08494854
183	0xbd499281	-0.049211983
184	0x3da05c03	0.0783005
185	0x3c9ad30f	0.018899469
186	0x3d286ca3	0.04111923
187	0xbd96462c	-0.07337603
188	0x3d9d105a	0.076691344
189	0xbd7df499	-0.062000845
190	0x3dad4b18	0.084615886
191	0x3d8baa9d	0.06819651
192	0x3d20ab8e	0.039226107
193	0x3c0436ca	0.008069703
194	0xbd5d4bf7	-0.054027524
195	0x3db4ffe2	0.08837868
196	0x3d8a075f	0.06739687
197	0x3d26d8e9	0.040734205
198	0xbb9f855f	-0.004868194
199	0x3d511ec0	0.051054716
200	0x3c580d3a	0.013186747
201	0x3d34f9d8	0.044183582
202	0x3de4bb5c	0.111685485
203	0xbd0949d3	-0.03351767
204	0x3d949c17	0.07256334
205	0xbb8f09b0	-0.0043651685
206	0xbd5d5aad	-0.054041553
207	0xbb880548	-0.00415102
208	0xbdb845bf	-0.08997678
209	0x3d8c7df7	0.068599634
210	0xbd850970	-0.06495941
211	0xbd09f7cb	-0.03368358
212	0xbd8abc41	-0.06774188
213	0xbdc7653b	-0.09736105
214	0xbc2dd415	-0.010609646
215	0xbca9c835	-0.020725349
216	0xbc14c32d	-0.009079737
217	0xbd9a95f2	-0.07548131
218	0x3beb2edd	0.0071772174
219	0x3ab5de6c	0.0013875491
220	0xbd8ce138	-0.068788946
221	0x3d0d37fd	0.034477223
222	0x3ce1d347	0.027566565
223	0xbbb3fc54	-0.0054927263
224	0x3da5633c	0.08075568
225	0xbd4d363a	-0.050100543
226	0xbcbdf8c5	-0.023189912
227	0xbc89189f	-0.016735373
228	0x3afdf086	0.001937405
229	0x3e0310be	0.12799355
230	0x3d692d82	0.056928165
231	0xbda52a5c	-0.0806472
232	0x3df10978	0.11769384
233	0xbd68d856	-0.05684694
234	0x3c540e7b	0.012942906
235	0x3cb962b2	0.02263007
236	0x3d684a12	0.056711264
237	0x3d0aa560	0.03384912
238	0xbd552120	-0.052033544
239	0x3ddec751	0.1087786
240	0x3c16bdda	0.009200538
241	0xbcd34861	-0.025791349
242	0x3d6f986f	0.05849498
243	0xbd6ebc10	-0.05828482
244	0xbc53f887	-0.0129376715
245	0xbd5759ee	-0.052575998
246	0xbca415f2	-0.020029996
247	0xbbc585e6	-0.006027925
248	0xbd128cfd	-0.03577899
249	0x3d862e89	0.065518446
250	0xbbd3ee26	-0.0064675985
251	0x3d252dcc	0.04032688
252	0x3c40b95c	0.011762943
253	0xbdbfecfb	-0.09371372
254	0xbd971626	-0.07377271
255	0x3dcbb7aa	0.099471405

MLP_G.0.bias f4 [96]
0	0x3e3fe67c	0.18740267
1	0xbc92ba8d	-0.01791122
2	0x3dcca656	0.099926636
3	0x3e515f81	0.20446588
4	0xac48a182	-2.8511364e-12
5	0xbd495033	-0.04914875
6	0xbd13d8cb	-0.03609542
7	0x3e4085d1	0.18801047
8	0x3e8755ef	0.2643275
9	0xbcd27b6f	-0.025693623
10	0x3e26f320	0.16303682
11	0x3e154978	0.14578807
12	0x3daf3ba8	0.085563004
13	0xbb7fd091	-0.0039034227
14	0x3e2b67ab	0.16738765
15	0xbd1b66ec	-0.03793995
16	0x3d6507e5	0.055915732
17	0x3e7c8fbc	0.24664205
18	0x3cc93c5c	0.024564914
19	0x3e2284aa	0.1587092
20	0x3e298bbf	0.16557215
21	0x3d3f6f95	0.046737272
22	0xba684d7d	-0.00088616443
23	0xbd111831	-0.03542346
24	0x3e2c4fbb	0.1682729
25	0xbc9110c3	-0.017708188
26	0xaa622fec	-2.0089459e-13
27	0x3c2e9e27	0.010657824
28	0x3c8c8b7f	0.01715636
29	0x3c2c4db1	0.01051657
30	0xbcd4d56b	-0.025980672
31	0x3cb37579	0.021906601
32	0x3e8a02e8	0.26955342
33	0xba832f8f	-0.001000868
34	0xbd3ff179	-0.046861146
35	0x3e4abceb	0.19798629
36	0xae9ca200	-7.122836e-11
37	0xba277786	-0.0006388355
38	0x3e2607f0	0.16213965
39	0xb21581e4	-8.702475e-09
40	0x3ca653a1	0.02030355
41	0x3de9a400	0.11408234
42	0x3e3cf0b3	0.18451194
43	0xbbdf4a85	-0.0068143033
44	0xbc15003f	-0.009094297
45	0xacc0818a	-5.47135e-12
46	0xbcc4495d	-0.023960764
47	0xa9cb560f	-9.02994e-14
48	0xbd49cde4	-0.04926862
49	0x3dba3f6d	0.09094129
50	0xbcf6b3a5	-0.030114958
51	0x3d0db4ac	0.03459613
52	0x3e57e771	0.21084382
53	0x3e4bc7c7	0.19900428
54	0x3e214252	0.15747955
55	0x3e48ca9a	0.19608536
56	0xbb52ff6a	-0.0032195696
57	0xbabcce37	-0.0014404719
58	0x3e07560e	0.13216421
59	0xbb8afeb9	-0.004241791
60	0x3d128abb	0.035776835
61	0x3e43b9f9	0.19113912
62	0x3e7bfd69	0.24608387
63	0x3d34371d	0.043997873
64	0x3cb9454c	0.022616051
65	0xbc85652e	-0.016283598
66	0xbaf686db	-0.0018808501
67	0xbcff932f	-0.031198112
68	0x3e0a4efe	0.13506696
69	0x3e05a648	0.13051713
70	0x3cf71a36	0.030163866
71	0xba6c9c3d	-0.0009025967
72	0xbc813740	-0.015773416
73	0xbcc95365	-0.024575898
74	0xbd0fccc5	-0.035107393
75	0x3e18b7fe	0.14913937
76	0xaa9744d6	-2.6870753e-13
77	0xb2f3be60	-2.8375496e-08
78	0x3e1a608e	0.15075895
79	0xbb54b7f1	-0.003245827
80	0x3e338f72	0.17535189
81	0xbd7d0816	-0.06177529
82	0x3c2eb90a	0.010664234
83	0x3e6ff9b9	0.23435105
84	0xbc7a07c9	-0.015260645
85	0x3b55e51a	0.0032637776
86	0xbc05a5b6	-0.008157184
87	0xbb5241b9	-0.003208263
88	0x3e319f1d	0.17345853
89	0xbcc779e5	-0.024350116
90	0x3e0dbfd3	0.13842706
91	0xbcc16cb9	-0.023611413
92	0x3e016a11	0.12638117
93	0x3d83a144	0.06427243
94	0xbca24fa0	-0.019813359
95	0x3e07b7d1	0.13253714

MLP_G.2.weight f4 [64, 96]
0	0xbe0f9480	-0.14021492
1	0xbc6c2b25	-0.014414583
2	0x3e907c1a	0.28219682
3	0xbd3bfe90	-0.045897067
4	0x0037288f	5.065502e-39
5	0x3c96beb4	0.018401481
6	0xbd02925d	-0.031877864
7	0x3d9d8a45	0.076923884
8	0x3da12a8f	0.078694455
9	0xbbc50a4d	-0.006013191
10	0x3d6b61f8	0.057466477
11	0x3d9a58ca	0.075364664
12	0x3e908d6f	0.28232905
13	0xbc5c7d1b	-0.013457562
14	0x3d1d4fc0	0.038406134
15	0xbcfc3cfb	-0.030790797
16	0xbe22e9b3	-0.15909462
17	0x3d8dc8f7	0.069230966
18	0xbd17ff4b	-0.0371087
19	0xbd896dae	-0.06710373
20	0x3c722181	0.014778496
21	0x3e8c4000	0.27392578
22	0xbc71cf6b	-0.014758925
23	0xbd049097	-0.032364454
24	0x3d4dec2c	0.05027406
25	0xbc6cfb60	-0.014464229
26	0x0015df91	2.008746e-39
27	0xbc7601e6	-0.015015101
28	0xbd086a5a	-0.03330455
29	0xbd1e9612	-0.038717337
30	0x3c49207e	0.012275813
31	0xbca3428f	-0.019929199
32	0x3ea68a4b	0.32527384
33	0xbd28be48	-0.04119709
34	0xb64b5a73	-3.0302006e-06
35	0x3eaa4497	0.33255455
36	0x0004d5c4	4.44027e-40
37	0xbca00def	-0.019537894
38	0xbe680e8b	-0.22661798
39	0xb6170f4b	-2.2509655e-06
40	0x3cc63f70	0.024200171
41	0x3e429f43	0.19006066
42	0x3d935255	0.07193438
43	0xbd1191fb	-0.03553961
44	0x24ef887b	1.03880935e-16
45	0x80476763	-6.557408e-39
46	0xbd22d2ef	-0.039751943
47	0x27a4e665	4.576894e-15
48	0xbd19ded4	-0.03756602
49	0x3ec23c50	0.3793664
50	0xbcfe92a9	-0.031075792
51	0xbd0a6e2e	-0.03379648
52	0x3d826035	0.06366006
53	0x3d9cdffc	0.07659909
54	0x3e0b5bd2	0.13609245
55	0x3e31f3cd	0.17378159
56	0xbd30aa6a	-0.04313127
57	0xbd1834b3	-0.037159633
58	0xbe504612	-0.2033923
59	0x3b0853cc	0.00208019
60	0xbd1393a6	-0.03602948
61	0x3e8975e5	0.2684776
62	0x3d611214	0.05494888
63	0xbe50550b	-0.20344941
64	0x3d07f790	0.03319508
65	0x000cab85	1.163556e-39
66	0x3b3a9c29	0.0028474426
67	0xbcd85bc3	-0.026410943
68	0xbe2534fd	-0.16133495
69	0xbdac5895	-0.08415333
70	0xbcb6f9af	-0.022335855
71	0x803c29b4	-5.52509e-39
72	0x3a84de9a	0.0010137141
73	0x8040060b	-5.87964e-39
74	0x3d58573e	0.052817576
75	0x3d6bdf63	0.057586085
76	0x8029041e	-3.766732e-39
77	0x2e94c777	6.765693e-11
78	0x3da44057	0.08020084
79	0x802159c2	-3.06277e-39
80	0x3d853d57	0.0650584
81	0xbce1fb67	-0.027585698
82	0xbc0f13c5	-0.008732741
83	0x3e631b85	0.22178467
84	0x3c50ccd2	0.0127441455
85	0x3be80abc	0.0070813578
86	0xbcb76b93	-0.022390163
87	0x003b24e7	5.431532e-39
88	0x3e4ea977	0.20181833
89	0xbc2f96c9	-0.010717102
90	0x3db1bc2e	0.086784706
91	0xbc4525b3	-0.012032914
92	0x3a9cecaa	0.0011972387
93	0x3d4dc82d	0.05023973
94	0xbc6ae7ea	-0.014337519
95	0x3d80afda	0.06283541
96	0x3d5f676f	0.054542
97	0x3d30fd9f	0.043210622
98	0x3d5ec991	0.054391447
99	0x3b2ecafd	0.0026671283
100	0x13b4dd0f	4.565637e-27
101	0xbb9dd43f	-0.0048165615
102	0x3d1dfe9a	0.038572885
103	0xbda00fd7	-0.07815521
104	0x3e04cfff	0.12969969
105	0xbc0f1f73	-0.008735525
106	0xbcb25b6a	-0.021772105
107	0x3da2e88e	0.079545125
108	0x3e365c6e	0.17808697
109	0x3d2fa621	0.042883042
110	0x3db5d2da	0.08878107
111	0x3d476031	0.04867572
112	0xbd2d1bf1	-0.042262975
113	0x3d437acb	0.047724526
114	0x3b9387e9	0.0045022857
115	0xbd1e5652	-0.03865654
116	0xbc017545	-0.007901494
117	0xbc7b6ada	-0.0153453
118	0xbc6d1295	-0.014469762
119	0x3ce084d1	0.027407082
120	0x3dc2a589	0.095042296
121	0x3d2b2bc6	0.041789792
122	0x004641a6	6.452035e-39
123	0xbcfb07fe	-0.03064346
124	0x3ceec2ca	0.029145617
125	0x3d46742a	0.048450626
126	0x3cfa7bbf	0.030576585
127	0xbd5ba0fb	-0.05362032
128	0xbdaa87b7	-0.08326667
129	0x3d744aea	0.059641756
130	0x3d30b1b1	0.04313821
131	0xbd6e92c9	-0.058245454
132	0x80070138	-6.43286e-40
133	0x3d015249	0.031572614
134	0x3dd98015	0.10620133
135	0x353fc2b4	7.1436375e-07
136	0xba114320	-0.00055413134
137	0x3ddfcf20	0.10928178
138	0x3e06ab39	0.13151254
139	0xbd5677c0	-0.052360296
140	0xbb7e8b1e	-0.0038840245
141	0x801ada6e	-2.466081e-39
142	0x3d266dad	0.04063194
143	0xa696792a	-1.0441182e-15
144	0x3d2bca97	0.04194125
145	0xbcdfc95d	-0.027317697
146	0x398da98a	0.00027019932
147	0xbc6fae64	-0.01462898
148	0xbd2d2add	-0.042277206
149	0xba5ed484	-0.0008500295
150	0x3d80df4e	0.06292592
151	0x3c7e1409	0.015507706
152	0x3c0a1a66	0.008429145
153	0x3cceac9b	0.02522879
154	0xbc7090ff	-0.014683007
155	0x3773bfc4	1.4528578e-05
156	0xbc5c5eb8	-0.013450317
157	0xbe2bed62	-0.16789773
158	0x3d769bac	0.060207054
159	0xbd824f26	-0.063627526
160	0x3c57a3c6	0.013161605
161	0xb9171185	-0.00014407009
162	0xbc03b98f	-0.008039846
163	0xbc8ac7f5	-0.01694105
164	0xbe4971d7	-0.19672333
165	0xbdc6d4cd	-0.09708557
166	0xbb4d3465	-0.0031311747
167	0x3820d3e1	3.83443e-05
168	0xbb1f158f	-0.0024274325
169	0xb1cab022	-5.8989977e-09
170	0x3d553749	0.052054677
171	0x3d97c3ac	0.07410368
172	0x80359013	-4.918965e-39
173	0xaee65383	-1.0474024e-10
174	0x3d76dead	0.060270954
175	0xa91ba232	-3.4557596e-14
176	0x3dfd3815	0.123642124
177	0xbd83b85e	-0.064316496
178	0x3c9e6849	0.019336836
179	0xbc87b210	-0.016564399
180	0xbc44739b	-0.011990453
181	0xbb739657	-0.0037168467
182	0xbd906766	-0.07050972
183	0xb6deaa14	-6.6359153e-06
184	0xbc8aeb63	-0.016957944
185	0x3d20d295	0.039263327
186	0xbdc61a9e	-0.096730456
187	0x3c83836b	0.016053876
188	0xbd6f3ccd	-0.058407594
189	0xbd101356	-0.03517469
190	0x3db3620c	0.08758935
191	0x3db7b588	0.08970171
192	0x3dfaaa74	0.122395426
193	0x3d01c6b6	0.031683646
194	0xbdb9047c	-0.090340585
195	0xbe314c64	-0.17314297
196	0x003ae99d	5.410263e-39
197	0xbc18f407	-0.009335524
198	0x3c8b6a2c	0.0170184
199	0xbd3089d3	-0.04310019
200	0xbe4c1551	-0.19930007
201	0x3bb8abf0	0.005635731
202	0x3de2c528	0.11072761
203	0x3d8bc463	0.06824567
204	0xba00b100	-0.00049091876
205	0x3d174510	0.036931098
206	0xbd879409	-0.06620032
207	0xbb7e9f5e	-0.0038852314
208	0xbd7dcf2d	-0.061965156
209	0x3d4a929f	0.049456235
210	0xbc2f0038	-0.0106812045
211	0xbe69c8d6	-0.22830519
212	0xbcf2d21e	-0.029641207
213	0x3d6d79b5	0.057977397
214	0xbc158daf	-0.009128018
215	0x3ca7ccdd	0.020483429
216	0x3d701624	0.058614865
217	0x3d555015	0.052078325
218	0x801fdb5d	-2.925593e-39
219	0xbd476fb1	-0.0486905
220	0x3d0befe4	0.034164324
221	0x3d376ca2	0.044781335
222	0x3cbc916b	0.02301856
223	0x3c2ca9db	0.010538544
224	0x3de2266c	0.11042485
225	0x3c3381da	0.010956252
226	0x3cc9f318	0.024652049
227	0x3d7fa947	0.062417295
228	0x00449594	6.298472e-39
229	0x3d1c6fc7	0.038192537
230	0x3c78b4f2	0.0151798595
231	0x341e5793	1.4746756e-07
232	0x3e1076c8	0.14107811
233	0xbd13795b	-0.036004405
234	0x3df39cd2	0.118951455
235	0x3d18396f	0.037164148
236	0xba1a652d	-0.000588971
237	0x801202d6	-1.654056e-39
238	0x3c92257e	0.017840143
239	0xa6d02c54	-1.4444914e-15
240	0x3b5d88a5	0.003380337
241	0xbbb95430	-0.005655788
242	0x3cfb8ac7	0.030705823
243	0x3d91c5a8	0.07117778
244	0x3daef3cd	0.08542595
245	0xbd3ba3a2	-0.04581035
246	0xbd82aa70	-0.063801646
247	0x3d182069	0.037140284
248	0x3c41fc80	0.011839986
249	0xbce8c236	-0.02841292
250	0xbd92d2c9	-0.0716911
251	0x337368c6	5.6673137e-08
252	0x3cc5fd64	0.024168678
253	0x3d6266db	0.055273872
254	0x3dc112fc	0.09427449
255	0xbd34fe0d	-0.044187594

MLP_G.2.bias f4 [64]
0	0xbf054b88	-0.52068377
1	0x3e007624	0.12545067
2	0x3e8ae7ed	0.2713007
3	0xbd06fe03	-0.03295709
4	0xad57150c	-1.2226008e-11
5	0x3d852881	0.06501866
6	0x3daee748	0.08540207
7	0x3c291c35	0.0103216665
8	0xbda844ce	-0.082162485
9	0x3c451c94	0.012030739
10	0x8408023c	-1.598775e-36
11	0x3cba8bd9	0.022771763
12	0x3e4db0cb	0.20086972
13	0x3e005dbd	0.12535758
14	0x3d87f2c2	0.06638099
15	0xbc3da72d	-0.011575502
16	0x3d69401e	0.056945913
17	0xbde7ebcb	-0.11324271
18	0x3de2dc91	0.11077226
19	0x3dc61b09	0.09673125
20	0xbdce795b	-0.100817405
21	0x0047669a	6.557127e-39
22	0x3cdd57f5	0.02701948
23	0x3e502517	0.20326649
24	0x3d17c664	0.037054434
25	0xbce6240c	-0.02809336
26	0x3e0e3b10	0.13889718
27	0x8f22035d	-7.9878644e-30
28	0xbe092838	-0.13394248
29	0xbcdecdbf	-0.027197717
30	0x3e45d518	0.1931957
31	0xaea15557	-7.336592e-11
32	0xbbd23439	-0.006414917
33	0xaca1279f	-4.580294e-12
34	0x3e363b08	0.17795956
35	0x3d7ec737	0.062201705
36	0x3d9018d8	0.070359886
37	0x39a270ab	0.00030982992
38	0xbc99dc9c	-0.018781953
39	0x3e1c361f	0.1525502
40	0x3d5b788c	0.05358176
41	0x3dc23356	0.09482448
42	0x3e02f060	0.12787008
43	0xb48eaa83	-2.6573625e-07
44	0x3e7c107e	0.24615666
45	0x3e5cc2c6	0.21558675
46	0xbf17aa25	-0.59243995
47	0x3e2448da	0.16043416
48	0x3df92d11	0.12166799
49	0x3c35f02c	0.011104625
50	0xbe150f4e	-0.1455662
51	0xb00588ed	-4.85797e-10
52	0xbe7ce77c	-0.2469768
53	0x002bdd40	4.028296e-39
54	0x3e1903e7	0.14942895
55	0xbc6200bd	-0.013794121
56	0x3a663541	0.0008781739
57	0x3ddf8e11	0.10915769
58	0x9e8de4fd	-1.5023663e-20
59	0x3cc65a14	0.024212874
60	0x3cd749a0	0.026280224
61	0x382bdb8c	4.0974046e-05
62	0x3e02de7a	0.1278018
63	0x3d0bb8d5	0.034111816

MLP_G.4.weight f4 [64, 64]
0	0xbdfd33dd	-0.12363408
1	0x3df7fdbf	0.12108945
2	0x3d92f9f1	0.07176579
3	0x3e09d51c	0.13460201
4	0x00490307	6.705077e-39
5	0xbd8e2541	-0.06940699
6	0x3bc50475	0.006012494
7	0xbd86ffdd	-0.06591771
8	0xbe4e296d	-0.2013299
9	0x3beb9179	0.0071889726
10	0x801a384b	-2.407917e-39
11	0xbd284399	-0.04108009
12	0xbe05f8e9	-0.13083233
13	0xbdcd056d	-0.100108005
14	0x3d1b21a7	0.03787389
15	0xbd40950b	-0.04701714
16	0xbd6b2a93	-0.05741365
17	0x3dbd4396	0.092414066
18	0xbdcff98e	-0.10155021
19	0xbdcac21a	-0.09900303
20	0x3cc055a8	0.023478344
21	0x000d4538	1.218692e-39
22	0xbe1b7f5e	-0.15185305
23	0xbdff6315	-0.1247007
24	0x3c4f084a	0.012636254
25	0xbdfa978a	-0.12235935
26	0xbd5b221d	-0.05349933
27	0x003c9524	5.563631e-39
28	0xbd098ce0	-0.033581614
29	0x3cf88c72	0.030340407
30	0x3ce2df94	0.027694501
31	0x0018a845	2.264416e-39
32	0x3162cf9a	3.3005336e-09
33	0x00265aa3	3.522263e-39
34	0xbe10f9eb	-0.14157836
35	0xbc7fd464	-0.015614603
36	0xbd0e8a7a	-0.03480003
37	0x3ba2aadf	0.004964217
38	0xbc994b99	-0.018712806
39	0xbd1dc7c7	-0.0385206
40	0xbe455b8a	-0.192732
41	0xbe1d9679	-0.15389432
42	0xbd0dc493	-0.034611296
43	0x28ade889	1.9307704e-14
44	0xbdb35846	-0.08757071
45	0x3db4dfdd	0.08831761
46	0xbdcd3574	-0.10019961
47	0x3d2b3c7a	0.04180572
48	0xbc663de6	-0.014052844
49	0xbb3ca319	-0.0028783737
50	0xbb8839b5	-0.00415727
51	0x002718c6	3.590471e-39
52	0xbddd5427	-0.108070664
53	0x80236e1a	-3.25374e-39
54	0x3d196e68	0.037458807
55	0xbd394e97	-0.045240965
56	0xbc6e9c8d	-0.014563692
57	0x3d25b4e9	0.040455732
58	0x0032240e	4.604709e-39
59	0x3cbc0435	0.022951225
60	0xbd38a2a4	-0.04507698
61	0x802a4a60	-3.883772e-39
62	0xbd762987	-0.060098197
63	0xbc1cef97	-0.009578607
64	0xbe09e871	-0.13467576
65	0x3db1644e	0.0866171
66	0x3d4e1e15	0.050321657
67	0x3cab133e	0.020883199
68	0x004a67e2	6.833093e-39
69	0xbc2cf318	-0.010556005
70	0xbe32e0f4	-0.17468625
71	0xbdd074ca	-0.10178526
72	0xbe34adf6	-0.17644486
73	0xbd37385c	-0.044731483
74	0x00496d01	6.743094e-39
75	0xbe099528	-0.13435805
76	0x3dd6f439	0.104958005
77	0x3d21f00f	0.03953558
78	0x3d65b019	0.056076143
79	0xbd2e20fd	-0.04251193
80	0x3daef478	0.085427225
81	0x3d85cd90	0.065333486
82	0xbd2a529a	-0.04158268
83	0x3dbf97e4	0.09355143
84	0x3d4f5581	0.050618652
85	0x0009b56e	8.91604e-40
86	0xbe39518e	-0.18097517
87	0xbe30af85	-0.17254455
88	0xbc4e993b	-0.012609775
89	0xbd1a988f	-0.037743147
90	0xbd660891	-0.056160513
91	0x848a5d7c	-3.2529496e-36
92	0xbc539154	-0.012913067
93	0x3c088d64	0.008334491
94	0xbdb5be1e	-0.088741526
95	0x8011e11b	-1.641956e-39
96	0x3264b1b0	1.3311748e-08
97	0x80377985	-5.094545e-39
98	0xbc76e2be	-0.015068708
99	0xbd3175bf	-0.043325182
100	0xbc570703	-0.01312423
101	0xbd2a3b77	-0.041560616
102	0xbc9ad0d2	-0.018898401
103	0xbd4967e5	-0.049171347
104	0xbdb2ad8c	-0.08724508
105	0xbd1221a6	-0.03567662
106	0xbd2a8b45	-0.041636724
107	0x2c82f406	3.7219143e-12
108	0x3d4c479d	0.049872983
109	0xbe1044dc	-0.14088768
110	0xbe167ba5	-0.14695604
111	0xbcdbc629	-0.026827889
112	0xbdb7031e	-0.089361414
113	0xbbae7545	-0.005324038
114	0xba86d037	-0.0010285442
115	0x8013efdf	-1.830924e-39
116	0xbe18a2c1	-0.14905836
117	0x802931a2	-3.78306e-39
118	0xbc184cff	-0.009295701
119	0xbdb3dbfd	-0.08782194
120	0xbd27dccb	-0.04098205
121	0x3d2fcea8	0.042921692
122	0x800cb061	-1.165299e-39
123	0xbcd9ad04	-0.026571758
124	0x3e016ccf	0.12639163
125	0xb893dc00	-7.0504844e-05
126	0x3dd9c05f	0.10632395
127	0x3cc39cbc	0.023878448
128	0x3d0f90b8	0.035050124
129	0x3dc388b5	0.09547559
130	0xbd9a965c	-0.0754821
131	0x3d244c70	0.04011196
132	0x801bd116	-2.554564e-39
133	0x3e04bb2f	0.1296203
134	0x3da62c76	0.08113949
135	0xbe1fc1ae	-0.15601227
136	0xbe64326c	-0.2228486
137	0xbe1131d6	-0.14179167
138	0x800d61f4	-1.229e-39
139	0xbdff9ec8	-0.12481457
140	0x3d134cb4	0.03596182
141	0xbc7b17de	-0.015325515
142	0xbe23d31f	-0.15998505
143	0xbd2e8cb5	-0.042614657
144	0x3d0d8322	0.034548886
145	0xbd07cf21	-0.033156518
146	0x3c9473fb	0.01812171
147	0x3d52ca24	0.051462308
148	0x3c1b1f59	0.009467923
149	0x80066fa0	-5.91056e-40
150	0xbe28f1a6	-0.16498432
151	0xbd2de814	-0.042457655
152	0x3d48a5b0	0.048986137
153	0x3ce96d32	0.028494451
154	0xbd403753	-0.04692776
155	0x0f989962	1.5047438e-29
156	0x3cd8d944	0.026470788
157	0x3d93e9a0	0.07222295
158	0xbd556ba4	-0.052104607
159	0x00212d57	3.046836e-39
160	0x3323a61e	3.8102478e-08
161	0x801e6416	-2.790969e-39
162	0x3cf0af86	0.029380571
163	0xbc9d3a6a	-0.019192893
164	0xbd53c688	-0.051703006
165	0xbdaa6732	-0.08320464
166	0x3681ee01	3.872207e-06
167	0xbe288eeb	-0.16460769
168	0xbd8ead07	-0.06966596
169	0xbda1dddd	-0.07903645
170	0x3d6be158	0.05758795
171	0x2dda33fd	2.4806818e-11
172	0x3d849082	0.06472875
173	0xbe33118a	-0.1748716
174	0x3d10d771	0.03536171
175	0xbe2d0784	-0.16897398
176	0x3d9d978c	0.07694921
177	0xbaf1b7f8	-0.0018441668
178	0xbb10d7bc	-0.0022101244
179	0x804b5e5e	-6.921515e-39
180	0x3d0aabce	0.033855252
181	0x001e46b0	2.780423e-39
182	0x3dd900a8	0.10595828
183	0xbd9903e5	-0.07471446
184	0x3d86572d	0.06559596
185	0x3c8b6aac	0.017018639
186	0x8042437c	-6.085352e-39
187	0xbd5e8d38	-0.054333895
188	0xbdcc214d	-0.09967289
189	0x35b0ea80	1.318127e-06
190	0x3ce71747	0.028209342
191	0xbd29b15e	-0.041428916
192	0xbd2946fc	-0.04132746
193	0xbdb6df00	-0.089292526
194	0xbdb30e22	-0.0874293
195	0xbd86ed47	-0.06588226
196	0x80499ac5	-6.759512e-39
197	0x3d9320b5	0.07183973
198	0x3de501e7	0.111820035
199	0x3e0ce0fd	0.13757701
200	0x3dc63775	0.09678546
201	0xbe05bf3c	-0.13061231
202	0x0002d0b0	2.58534e-40
203	0x3d419936	0.047265254
204	0xbdd9d172	-0.10635652
205	0xbd812bac	-0.06307158
206	0x3daed807	0.08537298
207	0x3cec2777	0.028827412
208	0x3d08a001	0.033355717
209	0xbd5aebe3	-0.053447615
210	0xbd20d3ce	-0.039264493
211	0x3d11de1b	0.035612207
212	0xbd9ff3cf	-0.07810175
213	0x8042a548	-6.120434e-39
214	0x3e17a962	0.14810708
215	0x3d648028	0.05578628
216	0x3d9cdddc	0.07659504
217	0xbd404c56	-0.0469478
218	0xbe2c1fee	-0.16809055
219	0x9a2934fa	-3.4991175e-23
220	0xbe263393	-0.16230612
221	0x3d860c2c	0.0654529
222	0xbded977b	-0.11601158
223	0x80419f48	-6.026447e-39
224	0xb3fe4e4f	-1.1842041e-07
225	0x8035b7b9	-4.933189e-39
226	0x3bc788e1	0.0060893153
227	0x3d17cd88	0.037061244
228	0x3d0fa0f2	0.0350656
229	0xbd3b98e9	-0.045800123
230	0xbbc64678	-0.006050881
231	0xbe23fc68	-0.16014254
232	0xbc52f87e	-0.012876628
233	0xbd052ad2	-0.03251154
234	0xbdf0469d	-0.117322184
235	0xb2abacd4	-1.9985613e-08
236	0xbe0f9560	-0.14021826
237	0xbe28d769	-0.16488422
238	0xbcb6090f	-0.022221116
239	0xbd926725	-0.071485795
240	0xbe103a1f	-0.14084671
241	0xbafbe4f6	-0.0019218016
242	0xbb9c37bd	-0.0047673867
243	0x802ca1a7	-4.098752e-39
244	0xbd1271a7	-0.03575292
245	0x003ed6ef	5.770904e-39
246	0xbe2f857d	-0.17140765
247	0x3d463c63	0.048397433
248	0xbc89ba19	-0.016812371
249	0xbdfff1c3	-0.12497284
250	0x801a2c44	-2.403602e-39
251	0x3ccdcc06	0.0251217
252	0xbbfa3c18	-0.0076365583
253	0xb8e28478	-0.00010801194
254	0xbdb9dc7c	-0.09075257
255	0x3d86305f	0.06552195
